{"modelTopology":{"class_name":"Sequential","config":{"name":"sequential_1","layers":[{"class_name":"Conv2D","config":{"filters":16,"kernel_initializer":{"class_name":"VarianceScaling","config":{"scale":1,"mode":"fan_avg","distribution":"normal","seed":null}},"kernel_regularizer":null,"kernel_constraint":null,"kernel_size":[3,3],"strides":[1,1],"padding":"same","data_format":"channels_last","dilation_rate":[1,1],"activation":"linear","use_bias":true,"bias_initializer":{"class_name":"Zeros","config":{}},"bias_regularizer":null,"activity_regularizer":null,"bias_constraint":null,"name":"layer1_conv","trainable":true,"batch_input_shape":[1,416,416,3],"dtype":"float32"}},{"class_name":"LeakyReLU","config":{"alpha":0.1,"name":"leaky_re_lu_LeakyReLU1","trainable":true}},{"class_name":"MaxPooling2D","config":{"pool_size":[2,2],"padding":"valid","strides":[2,2],"data_format":"channels_last","name":"max_pooling2d_MaxPooling2D1","trainable":false}},{"class_name":"Conv2D","config":{"filters":32,"kernel_initializer":{"class_name":"VarianceScaling","config":{"scale":1,"mode":"fan_avg","distribution":"normal","seed":null}},"kernel_regularizer":null,"kernel_constraint":null,"kernel_size":[3,3],"strides":[1,1],"padding":"same","data_format":"channels_last","dilation_rate":[1,1],"activation":"linear","use_bias":true,"bias_initializer":{"class_name":"Zeros","config":{}},"bias_regularizer":null,"activity_regularizer":null,"bias_constraint":null,"name":"layer2_conv","trainable":true}},{"class_name":"LeakyReLU","config":{"alpha":0.1,"name":"leaky_re_lu_LeakyReLU2","trainable":true}},{"class_name":"MaxPooling2D","config":{"pool_size":[2,2],"padding":"valid","strides":[2,2],"data_format":"channels_last","name":"max_pooling2d_MaxPooling2D2","trainable":false}},{"class_name":"Conv2D","config":{"filters":64,"kernel_initializer":{"class_name":"VarianceScaling","config":{"scale":1,"mode":"fan_avg","distribution":"normal","seed":null}},"kernel_regularizer":null,"kernel_constraint":null,"kernel_size":[3,3],"strides":[1,1],"padding":"same","data_format":"channels_last","dilation_rate":[1,1],"activation":"linear","use_bias":true,"bias_initializer":{"class_name":"Zeros","config":{}},"bias_regularizer":null,"activity_regularizer":null,"bias_constraint":null,"name":"layer3_conv","trainable":true}},{"class_name":"LeakyReLU","config":{"alpha":0.1,"name":"leaky_re_lu_LeakyReLU3","trainable":true}},{"class_name":"MaxPooling2D","config":{"pool_size":[2,2],"padding":"valid","strides":[2,2],"data_format":"channels_last","name":"max_pooling2d_MaxPooling2D3","trainable":false}},{"class_name":"Conv2D","config":{"filters":128,"kernel_initializer":{"class_name":"VarianceScaling","config":{"scale":1,"mode":"fan_avg","distribution":"normal","seed":null}},"kernel_regularizer":null,"kernel_constraint":null,"kernel_size":[3,3],"strides":[1,1],"padding":"same","data_format":"channels_last","dilation_rate":[1,1],"activation":"linear","use_bias":true,"bias_initializer":{"class_name":"Zeros","config":{}},"bias_regularizer":null,"activity_regularizer":null,"bias_constraint":null,"name":"layer4_conv","trainable":true}},{"class_name":"LeakyReLU","config":{"alpha":0.1,"name":"leaky_re_lu_LeakyReLU4","trainable":true}},{"class_name":"MaxPooling2D","config":{"pool_size":[2,2],"padding":"valid","strides":[2,2],"data_format":"channels_last","name":"max_pooling2d_MaxPooling2D4","trainable":false}},{"class_name":"Conv2D","config":{"filters":256,"kernel_initializer":{"class_name":"VarianceScaling","config":{"scale":1,"mode":"fan_avg","distribution":"normal","seed":null}},"kernel_regularizer":null,"kernel_constraint":null,"kernel_size":[3,3],"strides":[1,1],"padding":"same","data_format":"channels_last","dilation_rate":[1,1],"activation":"linear","use_bias":true,"bias_initializer":{"class_name":"Zeros","config":{}},"bias_regularizer":null,"activity_regularizer":null,"bias_constraint":null,"name":"layer5_conv","trainable":true}},{"class_name":"LeakyReLU","config":{"alpha":0.1,"name":"leaky_re_lu_LeakyReLU5","trainable":true}},{"class_name":"MaxPooling2D","config":{"pool_size":[2,2],"padding":"valid","strides":[2,2],"data_format":"channels_last","name":"max_pooling2d_MaxPooling2D5","trainable":false}},{"class_name":"Conv2D","config":{"filters":512,"kernel_initializer":{"class_name":"VarianceScaling","config":{"scale":1,"mode":"fan_avg","distribution":"normal","seed":null}},"kernel_regularizer":null,"kernel_constraint":null,"kernel_size":[3,3],"strides":[1,1],"padding":"same","data_format":"channels_last","dilation_rate":[1,1],"activation":"linear","use_bias":true,"bias_initializer":{"class_name":"Zeros","config":{}},"bias_regularizer":null,"activity_regularizer":null,"bias_constraint":null,"name":"layer6_conv","trainable":true}},{"class_name":"LeakyReLU","config":{"alpha":0.1,"name":"leaky_re_lu_LeakyReLU6","trainable":true}},{"class_name":"MaxPooling2D","config":{"pool_size":[2,2],"padding":"same","strides":[1,1],"data_format":"channels_last","name":"max_pooling2d_MaxPooling2D6","trainable":false}},{"class_name":"Conv2D","config":{"filters":1024,"kernel_initializer":{"class_name":"VarianceScaling","config":{"scale":1,"mode":"fan_avg","distribution":"normal","seed":null}},"kernel_regularizer":null,"kernel_constraint":null,"kernel_size":[3,3],"strides":[1,1],"padding":"same","data_format":"channels_last","dilation_rate":[1,1],"activation":"linear","use_bias":true,"bias_initializer":{"class_name":"Zeros","config":{}},"bias_regularizer":null,"activity_regularizer":null,"bias_constraint":null,"name":"layer7_conv","trainable":true}},{"class_name":"LeakyReLU","config":{"alpha":0.1,"name":"leaky_re_lu_LeakyReLU7","trainable":true}},{"class_name":"Conv2D","config":{"filters":512,"kernel_initializer":{"class_name":"VarianceScaling","config":{"scale":1,"mode":"fan_avg","distribution":"normal","seed":null}},"kernel_regularizer":null,"kernel_constraint":null,"kernel_size":[3,3],"strides":[1,1],"padding":"same","data_format":"channels_last","dilation_rate":[1,1],"activation":"linear","use_bias":true,"bias_initializer":{"class_name":"Zeros","config":{}},"bias_regularizer":null,"activity_regularizer":null,"bias_constraint":null,"name":"layer8_conv","trainable":true}},{"class_name":"LeakyReLU","config":{"alpha":0.1,"name":"leaky_re_lu_LeakyReLU8","trainable":true}},{"class_name":"Conv2D","config":{"filters":85,"kernel_initializer":{"class_name":"VarianceScaling","config":{"scale":1,"mode":"fan_avg","distribution":"normal","seed":null}},"kernel_regularizer":null,"kernel_constraint":null,"kernel_size":[1,1],"strides":[1,1],"padding":"same","data_format":"channels_last","dilation_rate":[1,1],"activation":"linear","use_bias":true,"bias_initializer":{"class_name":"Zeros","config":{}},"bias_regularizer":null,"activity_regularizer":null,"bias_constraint":null,"name":"m_outputs0","trainable":true}}]},"keras_version":"tfjs-layers 2.7.0","backend":"tensor_flow.js"},"weightsManifest":[{"paths":["weights.bin"],"weights":[{"name":"layer1_conv/kernel","shape":[3,3,3,16],"dtype":"float32"},{"name":"layer1_conv/bias","shape":[16],"dtype":"float32"},{"name":"layer2_conv/kernel","shape":[3,3,16,32],"dtype":"float32"},{"name":"layer2_conv/bias","shape":[32],"dtype":"float32"},{"name":"layer3_conv/kernel","shape":[3,3,32,64],"dtype":"float32"},{"name":"layer3_conv/bias","shape":[64],"dtype":"float32"},{"name":"layer4_conv/kernel","shape":[3,3,64,128],"dtype":"float32"},{"name":"layer4_conv/bias","shape":[128],"dtype":"float32"},{"name":"layer5_conv/kernel","shape":[3,3,128,256],"dtype":"float32"},{"name":"layer5_conv/bias","shape":[256],"dtype":"float32"},{"name":"layer6_conv/kernel","shape":[3,3,256,512],"dtype":"float32"},{"name":"layer6_conv/bias","shape":[512],"dtype":"float32"},{"name":"layer7_conv/kernel","shape":[3,3,512,1024],"dtype":"float32"},{"name":"layer7_conv/bias","shape":[1024],"dtype":"float32"},{"name":"layer8_conv/kernel","shape":[3,3,1024,512],"dtype":"float32"},{"name":"layer8_conv/bias","shape":[512],"dtype":"float32"},{"name":"m_outputs0/kernel","shape":[1,1,512,85],"dtype":"float32"},{"name":"m_outputs0/bias","shape":[85],"dtype":"float32"}]}],"format":"layers-model","generatedBy":"TensorFlow.js tfjs-layers v2.7.0","convertedBy":null}